tests/resources/models/bert_tiniest/model.safetensors (safetensors, 622248 bytes, 26 tensors)

bert.embeddings.LayerNorm.bias f4 [4]
00000000: 0000 0000 0000 0000 0000 0000 0000 0000
0.0 0.0 0.0 0.0

bert.embeddings.LayerNorm.weight f4 [4]
00000000: 0000 803f 0000 803f 0000 803f 0000 803f
1.0 1.0 1.0 1.0

bert.embeddings.position_embeddings.weight f4 [512, 4]
00000000: a607 ee3c cc64 d93c cd90 9cbb bebb e1bc
00000010: 5784 f43b f314 aabc bde1 883c 132e 8b3c
00000020: ae9e 163c 9e72 5e3c 19c0 51bc 770c aa3b
00000030: 9d95 c23a 5ccb fbbb 1e1b 473c a286 54bb
00000040: d072 6cbc 0d8e 05bd 0b6a b43c d532 19bb
00000050: 4054 d83c 4193 f7bb 4850 1f3b 8b20 6fbc
00000060: f04b fa3b 6dac 463c b006 e7bc a768 67bc
00000070: 2f8b 323c b4dd b93c b8a8 fbbc b774 c4ba
00000080: f282 a4bc bd6c 573c 19e8 8cbb 442b 553b
00000090: 0dd0 aabb 2f35 633c c54f b1bc 67bf b4bc
000000a0: e727 09bd 8d2e 83bb 25b2 ddbc 3e56 f8ba
000000b0: 7cb0 04bd 7257 383c 5dc3 d23a 733f ddbb
000000c0: 94be 003d 925e c7bc a405 3d3c e682 c23a
000000d0: d5fc babb 0081 d8bc 87f8 e9bb f92f 09bd
000000e0: 2e74 f93b c2ec 183b 00ad 1d3c ee47 68bc
000000f0: da81 093d 4397 933b aa9e 353c ad69 3cbc
00000100: c950 5a3c e7ce 953a 341f 21bc e12c 293c
00000110: d80a e43b 6e52 ad3b f33d dc3b 729e 45bc
00000120: 74f4 d73b a279 973c 4f27 703c 3431 043d
00000130: 821b 2f3b c140 72bc 985c 1d3d 85b8 323c
00000140: 9db2 ef3b c6ae 99bc bf91 96bc 0ea9 febb
00000150: 1281 cdbc 82b9 6cbc 5091 31bc b56b 4b3b
00000160: 8e7b 14bc 4d1b 3ebc 59a6 bb3c e3b6 23bb
00000170: 21a7 d73b b840 353a ffb4 043c b767 0abc
00000180: 7c53 603b fe00 bcbc 6b6e 00bd a1a0 d93b
00000190: 12c1 be3c 52fa 4ebd 9799 c7ba efe2 b2bc
000001a0: 7e27 863c a6ff c2bc 9403 7bbc 6107 ca3c
000001b0: c770 fe3b a2ad 913b 9cde 333b 0661 1eba
000001c0: adb3 2abd 6735 61ba e86b 103d d7da ad3a
000001d0: cf5a 6c3c 38a0 263c 3062 fcbb 2d4c 3b3b
000001e0: 1022 24bd 2450 0bbb 8cd9 8abc 0b21 953b
000001f0: 72a6 da3c bd75 833c a44a 93bc 47fa 22bb
00000200: 2dec a2bc 0287 e9bc d781 d3bb bc08 a2bb
00000210: 0d0f 47bb 0480 0c3c 8de6 3ebc 9268 9e3c
00000220: 93e1 413c 9a85 87bc 2aa1 65bc 97fb 6ab9
00000230: da8f 8abb dd9e ee3b e4bd 983c 7150 023d
00000240: a078 423c 5c2e edbc f945 963c 9809 96bc
00000250: dd05 d4bb 3006 913a 555d 3dbc 64ee 113c
00000260: 786f d3bb c95c 8838 2c9f 8abb 6968 a93c
00000270: d5a5 d73c 809b adb9 e967 c0bc ad6d 81bc
00000280: a350 7abb fcfd debc 7d1f 01bc fc6d e13b
00000290: c99e 98bc 5099 f03c e184 a6bc 429e 243c
000002a0: 9be1 29bb e604 86bc b6fa 823c 7596 423d
000002b0: ade1 02bc fd76 313c 2d22 aa3c d56c 523c
000002c0: 2a98 2a3b 8d4e 903b 2add 573c 92ba e83c
000002d0: 37f3 fcbc 8d90 c43c 92a9 8b3b d794 eb3c
000002e0: 9671 103c bd58 81bc 9750 a93c 650a a9bc
000002f0: eade 383d 5f24 8cbc 0794 92bb 77aa ee3b
00000300: aba5 393c b82f b3bc 941d 59bc a8a8 0a3d
00000310: e53d a73b 24a0 ac3b f9b5 133b f8ee 1dbc
00000320: 164b 973c d478 e2bb 1210 0dbc d98f bfbc
00000330: 03c2 1ebc bd6e 7a3c a774 b7bc 19a8 1ebc
00000340: 25cd a83c 3ca7 d43c 3df8 1c3d 7f6a 02bd
00000350: 4956 a33c b9fe 573c 22d2 c6bb 612a c4bc
00000360: 8a1e ef3b b254 85bb 308e 08bb cc6c 823c
00000370: aaa3 32bb 344f fa3b a78c fbbc 92cd 073d
00000380: 9deb 1abc aa8c 853c f679 913c 970f b9bc
00000390: a00f 343b 869b 29bb 330c 113b 822c c43b
000003a0: 622e 6fba 95ec 753b 47c9 db3c c608 163c
000003b0: 4e6e 243c 2b48 feba 58ba 4fbd 3d6f 173d
000003c0: 2f7a e93b fee9 3a3c 2b3a 1a3b 19db c3bc
000003d0: 0670 ad3b 1416 ef3b fdbc 5a3c 598b ed3c
000003e0: 1d6e 0dbc 5e32 a83b 5236 163d 4ae3 28bb
000003f0: 124e 283c b7d6 123c b9b5 e23c bd0b d23c
0.029056381 0.026537322 -0.004778004 -0.027555343 0.007462065 -0.020761942 0.016709203 0.016989743
0.009193106 0.013577132 -0.012802147 0.005189474 0.0014845614 -0.0076841544 0.012152461 -0.003242888
-0.01443167 -0.032606173 0.022023221 -0.0023376246 0.026407361 -0.007555396 0.0024309326 -0.014595161
0.007638447 0.01212607 -0.028201431 -0.014124072 0.010897442 0.022688724 -0.0307201 -0.0014988397
-0.02008197 0.013148484 -0.004300129 0.003252701 -0.00521279 0.01386766 -0.021644482 -0.022063924
-0.03348532 -0.004003352 -0.027062485 -0.0018946601 -0.03239487 0.011251317 0.0016079951 -0.0067519485
0.03143175 -0.024337087 0.011536989 0.0014840036 -0.0057064095 -0.0264287 -0.0071402225 -0.033493016
0.0076127267 0.0023334478 0.009623766 -0.014177306 0.0335711 0.004504116 0.011085192 -0.011499804
0.013324925 0.001142946 -0.0098341 0.010325641 0.0069593005 0.0052893674 0.006721252 -0.012061702
0.0065904204 0.018490616 0.014657809 0.032273486 0.0026719277 -0.014785946 0.038418382 0.010908251
0.0073149935 -0.018760096 -0.018380044 -0.0077716177 -0.02508596 -0.014448525 -0.010837868 0.003103954
-0.009062661 -0.011603189 0.02290647 -0.0024980835 0.0065812026 0.0006914246 0.008099793 -0.008447579
0.0034229448 -0.022949692 -0.031355303 0.006641463 0.023285422 -0.050531693 -0.0015228268 -0.021836726
0.016376253 -0.023803543 -0.015320677 0.024661722 0.007764909 0.0044457475 0.0027445918 -0.00060416793
-0.04167526 -0.00085910264 0.035259157 0.0013264072 0.014425947 0.010170035 -0.0077021345 0.002857934
-0.040071547 -0.0021257484 -0.016949438 0.004551058 0.026690695 0.016047353 -0.017979927 -0.0024868415
-0.019888008 -0.02850676 -0.006454687 -0.004944889 -0.0030373961 0.008575443 -0.011651647 0.019336972
0.011833566 -0.016543198 -0.014015475 -0.00022409704 -0.004228574 0.0072821216 0.018645234 0.031814996
0.01186958 -0.02895277 0.018343912 -0.018315122 -0.0064704255 0.0011064466 -0.011557897 0.008906934
-0.006452497 6.502268e-05 -0.0042304005 0.02067967 0.026324192 -0.00033112988 -0.023487048 -0.015799368
-0.0038195036 -0.027220719 -0.007881043 0.0068795662 -0.018630402 0.02936998 -0.020327033 0.010047497
-0.0025921825 -0.016359758 0.015988689 0.04750677 -0.007988376 0.010831592 0.02076825 0.01284333
0.0026030638 0.004403895 0.013175288 0.028409276 -0.030877693 0.023994708 0.0042621577 0.028757496
0.0088161435 -0.015789384 0.020668311 -0.02063484 0.045134462 -0.017107187 -0.0044732126 0.0072835046
0.011331002 -0.02187334 -0.013251681 0.03385225 0.005103814 0.0052681137 0.0022538884 -0.009639494
0.018468421 -0.0069113765 -0.0086097885 -0.023384022 -0.009689811 0.015285191 -0.022394491 -0.009683632
0.020605633 0.02595865 0.038322676 -0.031839844 0.019938605 0.013183289 -0.0060675303 -0.02394599
0.0072973417 -0.0040689344 -0.0020836703 0.015921019 -0.0027258196 0.0076388363 -0.030706717 0.03315503
-0.009455589 0.016302425 0.01775835 -0.022590442 0.0027475134 -0.0025880053 0.0022132515 0.005986751
-0.0009124038 0.0037525047 0.026829375 0.009157365 0.010036064 -0.001940017 -0.05071482 0.03697132
0.007125161 0.011408327 0.0023533206 -0.023908185 0.0052928953 0.007296333 0.013350722 0.02899711
-0.00863221 0.0051329574 0.036672898 -0.002577024 0.01027252 0.008962325 0.027674543 0.025640363

bert.embeddings.token_type_embeddings.weight f4 [2, 4]
00000000: e34b 99bc 1adb 003d 6b7a 45bc 389f dbbc
00000010: 670a 143d fb5d 963c 0a70 bf3c 2092 32bb
-0.018712943 0.03145895 -0.0120531125 -0.02680932 0.036142733 0.01835536 0.023368854 -0.0027247742

bert.embeddings.word_embeddings.weight f4 [30522, 4]
00000000: 0000 0000 0000 0000 0000 0000 0000 0000
00000010: 42bd 38bd 737a 13bc 932c e9bc 4cd0 d4bb
00000020: 5ff6 1c3d 9b86 51bc 9f56 033c be9e a8ba
00000030: 65b8 283b f8b8 493d 7235 d6bb 8a53 f93c
00000040: 2fc4 8bbb 240d 1bbd 2b8b f5bc 79e8 d63b
00000050: 96a6 933c f4c5 95bb 4e31 ed3c 84a5 013c
00000060: 44ec 613c 9b88 a8bb c716 afbc 8bcc 5abc
00000070: 3c3f aa3a 90f7 793c d9b3 d7bb 667d c93c
00000080: 25eb 083c 9229 ef3b 4c89 f03b e914 a93c
00000090: 99a0 febc be43 98bb 0a56 b33b 44c1 a63c
000000a0: eabb 743c 8f66 29bc 027f 643c 3039 10bc
000000b0: c713 f9bc 5e7d b03a 9741 87bc 1b60 cf3c
000000c0: 45de 883b 80fd 93bb 4884 813c f45d 37bc
000000d0: 6bb6 6abc 5eff 333c 6184 0cbc 01bf 31bb
000000e0: 0ea3 bebc f0f3 a9bc d647 80bc 085b 07bc
000000f0: bf19 913c 21f1 443b b86f b83c 16db 273d
00000100: 0eeb 72bc 671d 0fbc 978a e73c 5e07 c33c
00000110: efa2 b33b f249 693c 7b21 703a a49a 4fbd
00000120: b47d afbc b9ac febb 7d87 f03c 4368 1a3d
00000130: 0152 babc e1c1 68bc f4b9 dbbc 125e dc3c
00000140: 20ff a0b7 2533 323c ca46 82bc 2de5 0e3a
00000150: 1b71 5fbb 6329 13bb 8773 a9bc d444 39bc
00000160: 0792 8aba 3de6 c5bc 2bb0 283a be19 c73b
00000170: 50e0 193c 90c6 00bd ef47 463c f94e d6bc
00000180: 35bd 44bc b461 b6bb ec4e 07bc 1e55 1a3c
00000190: c9bc f2bc 5320 623c f481 25bc 6b65 183b
000001a0: de7c 39bb 4e15 c03c 6f62 5dbc 10f3 f03c
000001b0: 3c0d 6abc 4b01 e63b 8a79 f13c f6ae 80bd
000001c0: c683 b9bb 5d61 363d ddfd fcbc 67b1 81bc
000001d0: eb85 1fbc 60a6 a73b 46b0 09bb d45d 5b3c
000001e0: e9db 78bc 1962 973c 35a4 ef3b 9557 4cbc
000001f0: b317 a1bc 906b 373c 416f 693a 6950 b7ba
00000200: 551b 67bc aa36 3a3d 1796 a8bb c622 3f3c
00000210: 2a50 193c 87c7 b8bb a41d 5eba d4e7 453d
00000220: 9b24 18bc 5870 bb3c 1021 973c 8d1d 403c
00000230: 939a 6cbc 12b6 cd3b c53c e63b 82da 9a3c
00000240: cc0b 62bc 78af f33c a1a7 b9bc 47e1 873c
00000250: 0741 343c a2d2 b13c d338 4dbc 464e 053d
00000260: 1db2 e8bc 1727 b0bc 4b48 79bc 8355 13bc
00000270: 610f e3bc 3909 8f3b a6c3 943b e5e4 76bc
00000280: ab70 503c 54be 503c 84e5 93bc 7e1f aabb
00000290: 8760 23bd 6f23 413d a238 4f3c b2ac e6bc
000002a0: af4a f7bb cdee 8ebc a200 c3bc e0c7 7fbc
000002b0: e9d0 bebc ae2b 34bc d7b1 a23c d905 273c
000002c0: 451e 8a3b 0ffd 453c 8ef6 42bc 80df 773b
000002d0: 761a a93c c119 21bc 6bab 8fbb 9c05 45bc
000002e0: 1936 cb3b f83f efbb b860 75bc 3502 e73c
000002f0: b257 27bc 006b 323d 2dbd 03bc 166c 87bc
00000300: 7b50 e43c 0f53 b23c abee 013c 58f6 d8b7
00000310: bb08 f3bc 0a74 59bc 8bd0 9e3a 460c f3ba
00000320: 57e3 7fbc 09f5 c03c a515 74bb 6dd4 4bbd
00000330: 4ee9 9cbc 1337 7ebc 33f7 74bc 59e8 46bb
00000340: dcfa 2c3c a953 0ebc 38cc 003d 0fa3 2cbb
00000350: c199 80bc fdd9 af39 4f6e e0bb b9a3 14bc
00000360: 668d 953c 3a35 8d3c 55ef 80bc 52fc 193c
00000370: 68c6 913b 5049 6d3c aacf 43bc bbc3 1abc
00000380: 8986 993a 961d 97bc abb7 e9bb 601c d83b
00000390: 5ecb da3c 4404 25bc 9c42 da3b 3c56 40bc
000003a0: 14d2 b7bc e7e3 32bb 4cf2 6bbb 446a 2abd
000003b0: 124c 4bbc 394b fdbb 11fe 823c 7f2a 1abc
000003c0: 9a9b 03bd 8a71 a73c 9047 04bc f2a3 ea3b
000003d0: f234 f93c 74fb 05bb 8fe8 b1bb 4c18 22bc
000003e0: 0111 a0bc 2293 053d 01e4 75bc c4fc 58bd
000003f0: 41bc 4d3c da24 86bb 24c4 33bb eac6 573c
0.0 0.0 0.0 0.0 -0.045102365 -0.009001362 -0.028463637 -0.0064945575
0.038320895 -0.01278844 0.008016258 -0.0012864692 0.0025744673 0.049248666 -0.006537133 0.030435342
-0.0042653303 -0.03785433 -0.029973587 0.0065584746 0.01802377 -0.004570717 0.028954174 0.007912997
0.01378924 -0.0051432378 -0.021373166 -0.013354431 0.0012988816 0.015256777 -0.006582719 0.024595927
0.008356844 0.0072986567 0.007340586 0.020639854 -0.031082438 -0.0046467474 0.005472903 0.020355828
0.01493738 -0.010339393 0.013946297 -0.008802697 -0.030404938 0.0013465097 -0.016510768 0.025314381
0.004176887 -0.0045163035 0.015810147 -0.011191834 -0.014325718 0.010986177 -0.0085764835 -0.0027121904
-0.02327111 -0.020746201 -0.015659254 -0.00826145 0.017712472 0.003005095 0.02251421 0.04098042
-0.014826549 -0.008735037 0.028264327 0.023807224 0.0054820697 0.014238821 0.00091602624 -0.050684586
-0.021422245 -0.007772055 0.02936148 0.037697088 -0.02274418 -0.014206381 -0.026822068 0.026900325
-1.9192288e-05 0.010876452 -0.015902895 0.000545102 -0.0034094516 -0.0022455088 -0.02068497 -0.011307914
-0.0010572084 -0.024157638 0.00064349425 0.0060760668 0.009391859 -0.031439364 0.012102111 -0.026160704
-0.012008001 -0.0055658463 -0.008258563 0.009419708 -0.029631035 0.013801652 -0.010101784 0.002325381
-0.0028303186 0.023447659 -0.013512238 0.029412776 -0.014285382 0.007019197 0.0294769 -0.06283371
-0.0056614606 0.044526447 -0.03088277 -0.015831662 -0.009736518 0.005116269 -0.0021009608 0.01338907
-0.015189149 0.018479394 0.007313276 -0.012472053 -0.019664621 0.0111950785 0.0008904823 -0.0013985756
-0.014105638 0.045462288 -0.005144845 0.0116660055 0.0093574915 -0.00563902 -0.0008473045 0.04831679
-0.009286071 0.022880718 0.018448383 0.011725795 -0.01444115 0.006277808 0.0070262873 0.01890302
-0.013796758 0.029746756 -0.02266294 0.016586913 0.011001832 0.021706883 -0.012525755 0.03254535
-0.028405244 -0.021503014 -0.01521499 -0.008992556 -0.027717294 0.004365113 0.0045399247 -0.015069221
0.012722175 0.01274069 -0.018053778 -0.0051917424 -0.039886978 0.047152933 0.01264778 -0.02815852
-0.007546745 -0.017447853 -0.023804013 -0.015611619 -0.023292976 -0.010996742 0.019860191 0.010194265
0.004215034 0.01208426 -0.0118996035 0.0037822425 0.0206425 -0.0098328 -0.0043844483 -0.012025263
0.0062015173 -0.007301327 -0.014976673 0.028199295 -0.010213779 0.043559074 -0.0080407085 -0.016531032
0.027870407 0.021768121 0.007930438 -2.586392e-05 -0.029667249 -0.013272295 0.0012116594 -0.0018543086
-0.015618167 0.023554342 -0.0037244346 -0.049763132 -0.019154217 -0.01551606 -0.014951515 -0.0030350892
0.010557856 -0.008686938 0.03144476 -0.0026342308 -0.015698316 0.00033541015 -0.0068490873 -0.009072238
0.0182559 0.017237294 -0.015739122 0.009398537 0.0044487007 0.014482811 -0.011951366 -0.00944608
0.0011713068 -0.018446725 -0.0071324906 0.0065951794 0.026708301 -0.010071818 0.0066607725 -0.01173931
-0.02243904 -0.0027296485 -0.0036002574 -0.04160525 -0.012408273 -0.0077299145 0.015990289 -0.009409546
-0.032130815 0.020439882 -0.008073702 0.007160657 0.030420754 -0.0020444067 -0.0054293345 -0.009893488
-0.019539358 0.03261102 -0.015007974 -0.05297543 0.01255709 -0.0040937485 -0.0027430141 0.013169983

bert.encoder.layer.0.attention.output.LayerNorm.bias f4 [4]
00000000: 0000 0000 0000 0000 0000 0000 0000 0000
0.0 0.0 0.0 0.0

bert.encoder.layer.0.attention.output.LayerNorm.weight f4 [4]
00000000: 0000 803f 0000 803f 0000 803f 0000 803f
1.0 1.0 1.0 1.0

bert.encoder.layer.0.attention.output.dense.bias f4 [4]
00000000: 0000 0000 0000 0000 0000 0000 0000 0000
0.0 0.0 0.0 0.0

bert.encoder.layer.0.attention.output.dense.weight f4 [4, 4]
00000000: 966f 89ba ba95 233c 4d57 3b3d a5ef 3a3c
00000010: 2613 8a3c 93de 033d 63dd f7ba a19a 083c
00000020: 0cb5 fdbc dbf8 50bc 588c 00ba 1d6d 05bc
00000030: c0dc 4fbc 1577 bc3c dccc e0bb e104 bebc
-0.0010485526 0.009984428 0.045737553 0.011409675 0.016854834 0.032194685 -0.0018910583 0.008337648
-0.030970119 -0.012754644 -0.00049037253 -0.00814369 -0.012686908 0.023006001 -0.0068603586 -0.023195686

bert.encoder.layer.0.attention.self.key.bias f4 [4]
00000000: 0000 0000 0000 0000 0000 0000 0000 0000
0.0 0.0 0.0 0.0

bert.encoder.layer.0.attention.self.key.weight f4 [4, 4]
00000000: a384 143d 0316 97bc c25c 6bbc de61 103d
00000010: a328 8a3b 06f7 733c 058c aebb 8e68 293d
00000020: 5741 c7bc 2229 69bc b06e 69bc cac5 6d3b
00000030: af6a 463a a560 e6bc eb94 643a 60ad 3d3b
0.036259305 -0.018443113 -0.014365377 0.035249583 0.00421627 0.014890438 -0.00532675 0.041359477
-0.024323149 -0.014230998 -0.014247581 0.0036281222 0.00075689977 -0.028122256 0.00087197 0.002894245

bert.encoder.layer.0.attention.self.query.bias f4 [4]
00000000: 0000 0000 0000 0000 0000 0000 0000 0000
0.0 0.0 0.0 0.0

bert.encoder.layer.0.attention.self.query.weight f4 [4, 4]
00000000: 09bf 3bbc 8f94 a5bb 7fe8 113b 05e4 3ebc
00000010: ef3c f73c b9d9 76bc cf0b 3dbc 4116 a4bc
00000020: 6533 c4bb bc0a 323c 7297 c43c 9c51 bb3c
00000030: 02f6 e63c 507c 8a3c 505d 93bc 769e a5bb
-0.011459121 -0.00505311 0.0022263823 -0.011651044 0.030180423 -0.015066558 -0.01153846 -0.020030143
-0.005987572 0.010866817 0.023997996 0.022866063 0.028193478 0.01690498 -0.01798883 -0.0050542904

bert.encoder.layer.0.attention.self.value.bias f4 [4]
00000000: 0000 0000 0000 0000 0000 0000 0000 0000
0.0 0.0 0.0 0.0

bert.encoder.layer.0.attention.self.value.weight f4 [4, 4]
00000000: b972 153d 237d 9b39 2138 afba 8057 b9bb
00000010: 6000 19bc 1084 053d 332e 133c 72a2 2a3c
00000020: 5270 b2bc 02c0 c73c aff4 a63b cd22 a2bc
00000030: c2f1 c0bb e068 c13b ee14 80bc 5964 5c3c
0.03648636 0.00029657138 -0.0013368168 -0.0056561828 -0.009338468 0.032596648 0.008983183 0.010414707
-0.021782074 0.024383549 0.0050950865 -0.019791985 -0.005888195 0.0059023947 -0.01563498 0.013451659

bert.encoder.layer.0.intermediate.dense.bias f4 [8]
00000000: 0000 0000 0000 0000 0000 0000 0000 0000
00000010: 0000 0000 0000 0000 0000 0000 0000 0000
0.0 0.0 0.0 0.0 0.0 0.0 0.0 0.0

bert.encoder.layer.0.intermediate.dense.weight f4 [8, 4]
00000000: fc95 bc39 4a0f 20bc da14 09bc 7d80 a43c
00000010: 572c c6bc 2b9b 13bc e799 ad38 c9dd c33b
00000020: 419f 36bb 8024 5a3b 8500 e83c 51f4 1f3c
00000030: 9ea9 5fbb a224 263c 526f f63a 942c 333c
00000040: 1f5e 823b 7b8b 5c3c eade e5bc 7052 9a3c
00000050: a6f0 6e3c 601c aa3c 4da5 96bc a6c0 23bd
00000060: b735 bfbc 12e3 21ba 6214 99bc 7329 da3c
00000070: a7fb 97bb ca53 193b c954 bbbc 67f5 eabc
0.000359699 -0.00976927 -0.008366788 0.0200808 -0.024191065 -0.009009163 8.2779494e-05 0.0059773666
-0.0027865919 0.0033285916 0.02832056 0.009762839 -0.00341282 0.01014057 0.0018801487 0.010935921
0.0039785053 0.013460989 -0.028060395 0.018838137 0.014583742 0.020765483 -0.018389368 -0.039978646
-0.023341043 -0.0006175499 -0.018686477 0.026631093 -0.0046381536 0.002339589 -0.022867577 -0.02868147

bert.encoder.layer.0.output.LayerNorm.bias f4 [4]
00000000: 0000 0000 0000 0000 0000 0000 0000 0000
0.0 0.0 0.0 0.0

bert.encoder.layer.0.output.LayerNorm.weight f4 [4]
00000000: 0000 803f 0000 803f 0000 803f 0000 803f
1.0 1.0 1.0 1.0

bert.encoder.layer.0.output.dense.bias f4 [4]
00000000: 0000 0000 0000 0000 0000 0000 0000 0000
0.0 0.0 0.0 0.0

bert.encoder.layer.0.output.dense.weight f4 [4, 8]
00000000: 1681 213c 063d b0bb 355d b9bc 0343 10bd
00000010: 1268 d03c 02e2 363b 273d 373b e9dc eb3b
00000020: 62e9 2bbc 3b72 99bc c65e 48bc 6520 07bd
00000030: 79f5 ac3c c9da 87bc 868c 92bb ca9a 173b
00000040: 1a45 883c 5ae5 8d3a a91b e839 a567 2cbb
00000050: eb6e f1bc 0137 43b9 9d72 043c 6ee4 b33c
00000060: 40d5 7c3c 9cee 433c 6922 c2bc 624d 5cbc
00000070: 01f0 d3bc d066 9e3c 5306 c93b 2b7e 79bc
0.009857437 -0.0053783683 -0.022627452 -0.035220157 0.02544025 0.0027905707 0.0027960034 0.0071979654
-0.0104926545 -0.018731227 -0.012229627 -0.03298988 0.021113144 -0.016583817 -0.004472318 0.0023133033
0.016634513 0.0010825798 0.00044271097 -0.0026306894 -0.029471835 -0.0001861714 0.008083967 0.02195951
0.015431702 0.011958744 -0.023698049 -0.013446184 -0.025871279 0.019336134 0.006134787 -0.015227835

cls.predictions.bias f4 [30522]
00000000: 0000 0000 0000 0000 0000 0000 0000 0000
00000010: 0000 0000 0000 0000 0000 0000 0000 0000
00000020: 0000 0000 0000 0000 0000 0000 0000 0000
00000030: 0000 0000 0000 0000 0000 0000 0000 0000
00000040: 0000 0000 0000 0000 0000 0000 0000 0000
00000050: 0000 0000 0000 0000 0000 0000 0000 0000
00000060: 0000 0000 0000 0000 0000 0000 0000 0000
00000070: 0000 0000 0000 0000 0000 0000 0000 0000
00000080: 0000 0000 0000 0000 0000 0000 0000 0000
00000090: 0000 0000 0000 0000 0000 0000 0000 0000
000000a0: 0000 0000 0000 0000 0000 0000 0000 0000
000000b0: 0000 0000 0000 0000 0000 0000 0000 0000
000000c0: 0000 0000 0000 0000 0000 0000 0000 0000
000000d0: 0000 0000 0000 0000 0000 0000 0000 0000
000000e0: 0000 0000 0000 0000 0000 0000 0000 0000
000000f0: 0000 0000 0000 0000 0000 0000 0000 0000
00000100: 0000 0000 0000 0000 0000 0000 0000 0000
00000110: 0000 0000 0000 0000 0000 0000 0000 0000
00000120: 0000 0000 0000 0000 0000 0000 0000 0000
00000130: 0000 0000 0000 0000 0000 0000 0000 0000
00000140: 0000 0000 0000 0000 0000 0000 0000 0000
00000150: 0000 0000 0000 0000 0000 0000 0000 0000
00000160: 0000 0000 0000 0000 0000 0000 0000 0000
00000170: 0000 0000 0000 0000 0000 0000 0000 0000
00000180: 0000 0000 0000 0000 0000 0000 0000 0000
00000190: 0000 0000 0000 0000 0000 0000 0000 0000
000001a0: 0000 0000 0000 0000 0000 0000 0000 0000
000001b0: 0000 0000 0000 0000 0000 0000 0000 0000
000001c0: 0000 0000 0000 0000 0000 0000 0000 0000
000001d0: 0000 0000 0000 0000 0000 0000 0000 0000
000001e0: 0000 0000 0000 0000 0000 0000 0000 0000
000001f0: 0000 0000 0000 0000 0000 0000 0000 0000
00000200: 0000 0000 0000 0000 0000 0000 0000 0000
00000210: 0000 0000 0000 0000 0000 0000 0000 0000
00000220: 0000 0000 0000 0000 0000 0000 0000 0000
00000230: 0000 0000 0000 0000 0000 0000 0000 0000
00000240: 0000 0000 0000 0000 0000 0000 0000 0000
00000250: 0000 0000 0000 0000 0000 0000 0000 0000
00000260: 0000 0000 0000 0000 0000 0000 0000 0000
00000270: 0000 0000 0000 0000 0000 0000 0000 0000
00000280: 0000 0000 0000 0000 0000 0000 0000 0000
00000290: 0000 0000 0000 0000 0000 0000 0000 0000
000002a0: 0000 0000 0000 0000 0000 0000 0000 0000
000002b0: 0000 0000 0000 0000 0000 0000 0000 0000
000002c0: 0000 0000 0000 0000 0000 0000 0000 0000
000002d0: 0000 0000 0000 0000 0000 0000 0000 0000
000002e0: 0000 0000 0000 0000 0000 0000 0000 0000
000002f0: 0000 0000 0000 0000 0000 0000 0000 0000
00000300: 0000 0000 0000 0000 0000 0000 0000 0000
00000310: 0000 0000 0000 0000 0000 0000 0000 0000
00000320: 0000 0000 0000 0000 0000 0000 0000 0000
00000330: 0000 0000 0000 0000 0000 0000 0000 0000
00000340: 0000 0000 0000 0000 0000 0000 0000 0000
00000350: 0000 0000 0000 0000 0000 0000 0000 0000
00000360: 0000 0000 0000 0000 0000 0000 0000 0000
00000370: 0000 0000 0000 0000 0000 0000 0000 0000
00000380: 0000 0000 0000 0000 0000 0000 0000 0000
00000390: 0000 0000 0000 0000 0000 0000 0000 0000
000003a0: 0000 0000 0000 0000 0000 0000 0000 0000
000003b0: 0000 0000 0000 0000 0000 0000 0000 0000
000003c0: 0000 0000 0000 0000 0000 0000 0000 0000
000003d0: 0000 0000 0000 0000 0000 0000 0000 0000
000003e0: 0000 0000 0000 0000 0000 0000 0000 0000
000003f0: 0000 0000 0000 0000 0000 0000 0000 0000
0.0 0.0 0.0 0.0 0.0 0.0 0.0 0.0
0.0 0.0 0.0 0.0 0.0 0.0 0.0 0.0
0.0 0.0 0.0 0.0 0.0 0.0 0.0 0.0
0.0 0.0 0.0 0.0 0.0 0.0 0.0 0.0
0.0 0.0 0.0 0.0 0.0 0.0 0.0 0.0
0.0 0.0 0.0 0.0 0.0 0.0 0.0 0.0
0.0 0.0 0.0 0.0 0.0 0.0 0.0 0.0
0.0 0.0 0.0 0.0 0.0 0.0 0.0 0.0
0.0 0.0 0.0 0.0 0.0 0.0 0.0 0.0
0.0 0.0 0.0 0.0 0.0 0.0 0.0 0.0
0.0 0.0 0.0 0.0 0.0 0.0 0.0 0.0
0.0 0.0 0.0 0.0 0.0 0.0 0.0 0.0
0.0 0.0 0.0 0.0 0.0 0.0 0.0 0.0
0.0 0.0 0.0 0.0 0.0 0.0 0.0 0.0
0.0 0.0 0.0 0.0 0.0 0.0 0.0 0.0
0.0 0.0 0.0 0.0 0.0 0.0 0.0 0.0
0.0 0.0 0.0 0.0 0.0 0.0 0.0 0.0
0.0 0.0 0.0 0.0 0.0 0.0 0.0 0.0
0.0 0.0 0.0 0.0 0.0 0.0 0.0 0.0
0.0 0.0 0.0 0.0 0.0 0.0 0.0 0.0
0.0 0.0 0.0 0.0 0.0 0.0 0.0 0.0
0.0 0.0 0.0 0.0 0.0 0.0 0.0 0.0
0.0 0.0 0.0 0.0 0.0 0.0 0.0 0.0
0.0 0.0 0.0 0.0 0.0 0.0 0.0 0.0
0.0 0.0 0.0 0.0 0.0 0.0 0.0 0.0
0.0 0.0 0.0 0.0 0.0 0.0 0.0 0.0
0.0 0.0 0.0 0.0 0.0 0.0 0.0 0.0
0.0 0.0 0.0 0.0 0.0 0.0 0.0 0.0
0.0 0.0 0.0 0.0 0.0 0.0 0.0 0.0
0.0 0.0 0.0 0.0 0.0 0.0 0.0 0.0
0.0 0.0 0.0 0.0 0.0 0.0 0.0 0.0
0.0 0.0 0.0 0.0 0.0 0.0 0.0 0.0

cls.predictions.transform.LayerNorm.bias f4 [4]
00000000: 0000 0000 0000 0000 0000 0000 0000 0000
0.0 0.0 0.0 0.0

cls.predictions.transform.LayerNorm.weight f4 [4]
00000000: 0000 803f 0000 803f 0000 803f 0000 803f
1.0 1.0 1.0 1.0

cls.predictions.transform.dense.bias f4 [4]
00000000: 0000 0000 0000 0000 0000 0000 0000 0000
0.0 0.0 0.0 0.0

cls.predictions.transform.dense.weight f4 [4, 4]
00000000: 4119 b3bb a646 2a39 2e85 533c 96d4 953c
00000010: b4ea 343c 69da 34bc 72cd 2bbd f457 4bbc
00000020: 64e6 04bc 84cc b83c 2e2c 62b9 6adc 043c
00000030: 26e6 7d3b a33e 9b3c 0127 55bc fda3 d53c
-0.005465657 0.00016238782 0.0129101705 0.018289845 0.011042286 -0.011038401 -0.041943975 -0.012411106
-0.00811157 0.022558458 -0.00021569498 0.008109191 0.0038741915 0.018950766 -0.013009788 0.026079172
