tests/resources/models/tiny_gpt2/model.safetensors (safetensors, 9880 bytes, 16 tensors)

h.0.attn.c_attn.bias f4 [6]
000000 00 00 00 00 00 00 00 00 00 00 00 00 00 00 00 00
       0.0 0.0 0.0 0.0
000010 00 00 00 00 00 00 00 00
       0.0 0.0

h.0.attn.c_attn.weight f4 [2, 6]
000000 2d dc a0 3b d5 d3 ca bc 02 44 54 3c 4a a5 38 bc
       0.0049090595 -0.024759213 0.012955667 -0.011269877
000010 29 57 d6 bc dd f1 23 3d f5 c7 85 3c 22 70 c5 3b
       -0.026164608 0.04002558 0.016330699 0.00602533
000020 06 23 b7 3c e8 16 11 bc ef 99 e4 3c 27 ec 29 3c
       0.022355568 -0.008855559 0.027905433 0.0103712445

h.0.attn.c_proj.bias f4 [2]
000000 00 00 00 00 00 00 00 00
       0.0 0.0

h.0.attn.c_proj.weight f4 [2, 2]
000000 d4 3f db 3b f9 a5 c0 bb 5a 21 aa 3c 8e ae e2 3a
       0.0066909585 -0.0058791605 0.020767856 0.0017294453

h.0.ln_1.bias f4 [2]
000000 00 00 00 00 00 00 00 00
       0.0 0.0

h.0.ln_1.weight f4 [2]
000000 00 00 80 3f 00 00 80 3f
       1.0 1.0

h.0.ln_2.bias f4 [2]
000000 00 00 00 00 00 00 00 00
       0.0 0.0

h.0.ln_2.weight f4 [2]
000000 00 00 80 3f 00 00 80 3f
       1.0 1.0

h.0.mlp.c_fc.bias f4 [8]
000000 00 00 00 00 00 00 00 00 00 00 00 00 00 00 00 00
       0.0 0.0 0.0 0.0
000010 00 00 00 00 00 00 00 00 00 00 00 00 00 00 00 00
       0.0 0.0 0.0 0.0

h.0.mlp.c_fc.weight f4 [2, 8]
000000 66 ac 15 3c 62 f3 a6 3b ad cc 8b 3b ed 2c b5 3c
       0.009135341 0.0050949315 0.0042663426 0.022116149
000010 47 c5 b5 3c cc 0b cd 3c 2a 8e 8c bb fe 53 1c 3c
       0.022188796 0.02503004 -0.004289408 0.00954151
000020 76 e3 27 bc a0 13 ab bc ef 7d c0 bc 59 f6 e6 3b
       -0.010247102 -0.020883381 -0.02349755 0.00704841
000030 b6 74 2c bc e5 25 75 3b e2 b7 28 bc 92 0c a0 3c
       -0.010525873 0.003740662 -0.010297747 0.019537244

h.0.mlp.c_proj.bias f4 [2]
000000 00 00 00 00 00 00 00 00
       0.0 0.0

h.0.mlp.c_proj.weight f4 [8, 2]
000000 1a 6b 16 3c f9 19 00 bc 8c 97 93 ba 53 e0 14 bc
       0.009180808 -0.007818692 -0.0011260374 -0.009086686
000010 a8 9f 94 bb f7 35 55 3b 3f 4e 99 3c 5b 71 a5 3b
       -0.004535634 0.0032533386 0.018714068 0.0050489134
000020 0c dc a6 3c fd 61 e7 bb 06 8a d1 39 68 ff 60 3c
       0.020368598 -0.0070612417 0.00039966422 0.013732769
000030 ce aa 63 3b 38 07 82 3b 7e 87 05 bc 3a 4c 17 3a
       0.0034739259 0.0039681457 -0.00814998 0.00057715515

ln_f.bias f4 [2]
000000 00 00 00 00 00 00 00 00
       0.0 0.0

ln_f.weight f4 [2]
000000 00 00 80 3f 00 00 80 3f
       1.0 1.0

wpe.weight f4 [1024, 2]
000000 82 5d aa 3c e4 ec 07 bc 99 81 4a 3c d8 7d 80 bc
       0.020796541 -0.008296225 0.01236 -0.015685007
000010 0b 8e 2b 3d 38 ec 36 3d 17 fa b8 3b 64 59 15 3d
       0.04188351 0.04465887 0.0056450474 0.036462203
000020 2a a1 58 3c ed ff 0f bd 40 0e 3a bd aa 39 c4 3b
       0.013222018 -0.03515618 -0.045423746 0.0059883194
000030 2e 6c ba 3b 2b c2 45 3a 07 a2 93 3c 9c f9 4c 3d
       0.0056891656 0.0007543887 0.018021597 0.050042734
000040 4c 6a 92 3b 3e ed 7a bb 22 2b b8 3c 6e ce e3 3b
       0.004468238 -0.003828838 0.022481505 0.0069520986
000050 b8 60 28 bb b6 8f 27 3c 8d 00 a4 3c 5d af e9 bc
       -0.0025692414 0.010227134 0.020019794 -0.028526003
000060 39 ac f3 bc 2f 44 da 3c a3 a5 77 bc 2d ac 39 bb
       -0.029745208 0.02664384 -0.015115174 -0.0028331385
000070 0d 1e 41 3c 37 1b 11 3b 50 f5 96 bc f6 27 0b bb
       0.01178695 0.0022141465 -0.018427521 -0.0021233535
000080 cd 4e c9 bc 6e 33 a3 bc 6a 29 77 bb 1b 37 2b 3b
       -0.024573708 -0.019921985 -0.0037713894 0.0026125375
000090 2b b8 d7 bc c6 c5 c3 bb 56 e1 23 3b a9 bc 77 ba
       -0.026332935 -0.005974504 0.0025006137 -0.0009450415
0000a0 15 d7 71 bc 98 28 9a bc a0 63 1d bb f1 33 80 bc
       -0.014760752 -0.018818185 -0.002401568 -0.015649768
0000b0 02 03 aa bb 60 cd c9 bc 44 0b 8b 3c 61 80 3f bc
       -0.005188347 -0.024634063 0.016973145 -0.011688323
0000c0 90 4c 55 bc 4f ba ff ba f3 5b 13 bd 52 c6 45 3c
       -0.013018742 -0.001951048 -0.03597636 0.012071209
0000d0 ae e5 cf 3b d2 78 b6 bc 4a 43 bf bc 8b 22 e1 3c
       0.0063445186 -0.022274408 -0.023347516 0.027482292
0000e0 c0 d9 d8 bc f7 f5 46 bb 07 bc 59 3c bc fe 17 bd
       -0.026471019 -0.0030359009 0.013289458 -0.037108168
0000f0 78 70 e8 bc 6a eb 54 bc af 88 c0 bc 54 40 c3 3c
       -0.028373942 -0.01299558 -0.023502676 0.023834385
000100 8d 07 ca bc 72 1e 1e 3c a7 f1 2f 3b bd 79 2b bc
       -0.024661804 0.009650813 0.0026846917 -0.010466036
000110 e2 33 92 3c 8a c8 b6 3c 47 c1 a5 bc 32 d2 fc bc
       0.017847005 0.022312421 -0.020233763 -0.030861948
000120 f5 9b 16 bd 97 15 d5 3c 24 9a b6 bb aa f9 00 bc
       -0.036769826 0.026011271 -0.005572574 -0.007872025
000130 72 44 30 bc 71 ed 87 bc b9 af bf bb f1 eb 1f 3a
       -0.010758506 -0.016592713 -0.005849805 0.00061005267
000140 2d e6 1c bd b3 37 53 3b 07 19 75 3c 99 68 55 bc
       -0.03830545 0.0032229244 0.01495958 -0.013025426
000150 25 b5 5d bc c9 21 48 bb 74 46 1e bc 8e ad 24 bc
       -0.013531958 -0.0030537716 -0.009660352 -0.010051144
000160 c1 ce d6 3c e1 f0 cb 3c 69 1f 18 bd aa f6 a3 3b
       0.026221635 0.024895133 -0.03713933 0.00500377
000170 f7 e8 48 3c 9e 7d 80 3a 1d b3 e0 3c 09 59 e2 bb
       0.012262574 0.0009803062 0.027429158 -0.0069075865
000180 9d 0e 13 3b 10 57 8d bb 06 94 51 bc 4b 20 bb bc
       0.002243913 -0.004313357 -0.012791639 -0.022842547
000190 d5 2a 15 3c 6e 46 21 3c 94 06 f8 3b 67 a8 a1 bb
       0.00910445 0.009843452 0.0075691435 -0.004933405
0001a0 2f bf f9 bc 37 ed 14 bc 60 c4 c2 3b ab ba 38 bc
       -0.030486671 -0.00908976 0.00594382 -0.011274974
0001b0 9b ff 05 bc 06 92 db bc 4a 9c d5 3c 2d 9b c9 3c
       -0.008178617 -0.026803028 0.026075501 0.024610126
0001c0 c1 55 08 bd 8f 10 5b 3b a1 e1 ba 3c 9b 23 10 3c
       -0.033284906 0.0033426618 0.022812666 0.0087975515
0001d0 67 8b 2e 3c b0 35 c3 3b 86 e4 44 3c 9f 9b 82 bb
       0.010653353 0.005957328 0.012017375 -0.0039858366
0001e0 72 bd 12 bd d8 42 fc ba 4b 0e 4f 3c b9 20 9c 3c
       -0.0358252 -0.0019245995 0.012637685 0.019058572
0001f0 74 2f 24 3c 42 10 86 bc e6 0c 89 3c c7 89 82 bc
       0.010021079 -0.016365174 0.016729783 -0.015934838
000200 16 16 04 bd 6b af 94 3c 52 cc a3 3c ea 62 e6 3c
       -0.032247625 0.018150052 0.019994888 0.028123338
000210 9b c7 02 3d d2 7b 37 3a 99 aa 9f bb fb a2 70 3b
       0.03192864 0.00069993467 -0.0048726317 0.0036718238
000220 24 00 13 bb b6 b9 90 3b 5c e2 c6 3c 4f 46 8b bc
       -0.0022430504 0.0044166697 0.024277858 -0.0170013
000230 6c 6e dc bc d6 f2 9b 3c 9b 75 db 3a ad 23 40 bc
       -0.026908122 0.019036692 0.0016743423 -0.011727256
000240 29 96 0b 3d 6f 63 09 bd ef 46 53 ba 70 26 10 bd
       0.03407875 -0.033542093 -0.0008059581 -0.035192907
000250 e1 41 f9 bb 41 ea a3 3c 76 d8 12 bc 43 9b 6d bc
       -0.0076067303 0.020009162 -0.008962741 -0.014502349
000260 7e f6 e1 3c 20 79 12 3b fc 6b c9 bc 39 c2 e4 bc
       0.027583357 0.0022350028 -0.024587624 -0.027924644
000270 57 90 34 bc e9 9d a8 bb 93 41 5c 3c 3e 9e 5b bb
       -0.011020741 -0.0051457775 0.0134433685 -0.0033511068
000280 9e 8e f9 bb 10 6e 82 bc 1c 5c a0 3c af 11 c3 bb
       -0.0076158782 -0.015921623 0.019575171 -0.005953036
000290 d3 96 06 3c 03 41 91 3b 73 ba b3 3c 2f 14 88 bb
       0.00821467 0.004432799 0.021939492 -0.0041527967
0002a0 38 54 bd ba 26 95 b5 3c 30 2c f3 3c e2 c8 55 bc
       -0.0014444655 0.022165846 0.029684156 -0.0130483825
0002b0 3d a9 49 3c 14 03 bd bc d8 bd 58 bc 07 6b 8c 3c
       0.012308416 -0.023072757 -0.013228856 0.017140878
0002c0 26 58 f9 3c f2 fd fa 3b 77 d4 cd bc c5 1a f6 3c
       0.03043754 0.007659667 -0.025125725 0.030042062
0002d0 a9 dd 39 3b 5b 49 86 3c ab 90 78 3c 6e c5 32 3c
       0.002836088 0.0163924 0.01517121 0.010911329
0002e0 fe be 3a bd 7d 2b d4 bb 0f 28 1a 3c d6 7e a7 3b
       -0.0455923 -0.006474911 0.009408965 0.0051115556
0002f0 5b 29 a3 ba 17 90 03 3c 60 88 06 3d e2 45 4a ba
       -0.0012448238 0.008029959 0.0328449 -0.0007716102
000300 3b a9 1a bd 99 3f b8 bb b6 a7 91 bb 29 f9 84 bc
       -0.037759047 -0.005622816 -0.0044450415 -0.01623209
000310 3c de 2a 3d ee f7 01 bc 78 8e b7 bb 87 97 7e 3c
       0.041715845 -0.007932646 -0.0056017004 0.015539057
000320 c9 1d 7a bc 07 d6 e6 3b 14 3f 8b 3c 6b ca fa 3a
       -0.01526589 0.007044557 0.016997851 0.0019133812
000330 80 c0 63 3c fe 30 bf 3b a0 a3 d6 3c 82 01 84 bc
       0.013900876 0.0058346977 0.02620107 -0.016114
000340 51 52 88 3c 2b 8b 67 3b 54 de e5 b9 22 b7 9c bc
       0.016640814 0.0035330753 -0.0004384393 -0.019130293
000350 2b 7e 22 bd 35 f5 b2 3c e4 c8 59 3c c9 30 c1 3c
       -0.039671104 0.02184544 0.013292525 0.023582833
000360 f6 3b a6 3b 42 ee 08 3d 7a de 8f 3b a9 15 b7 bc
       0.005073066 0.033430345 0.004390535 -0.022349196
000370 b9 6d 89 3c 35 e3 b7 3b 33 68 38 bc 77 14 02 bc
       0.016775953 0.005611802 -0.011255312 -0.0079394495
000380 c3 69 78 bd f2 6b 9d bc ae d8 6e 3c 13 e8 6e 3c
       -0.060647737 -0.019216511 0.014578028 0.014581698
000390 d8 bf b5 bc f2 30 4e bc 7e 79 91 b7 81 37 1f 3c
       -0.022186205 -0.012584912 -1.7341921e-05 0.009717823
0003a0 01 16 57 3c 1c ea 29 bd 99 9f 68 3c 0a a5 f7 3b
       0.013127805 -0.04148303 0.014198207 0.007557516
0003b0 c5 d1 ae 3c fa 74 06 3d 49 d8 df bc 4c 0b e6 3b
       0.02134026 0.0328264 -0.027324812 0.0070203897
0003c0 17 82 06 bc b7 68 01 3d 2a 6b 48 3c 48 74 22 bd
       -0.008209727 0.031594004 0.012232581 -0.039661676
0003d0 a5 5f bd bc c1 00 b0 3b b9 31 07 3d cf 9f 2d 3c
       -0.023116896 0.0053711836 0.033006404 0.010597183
0003e0 5b af 30 3c 4e 6d e9 3c 5a c7 89 3c 7f 73 13 bd
       0.0107839955 0.028494503 0.016818691 -0.035998818
0003f0 49 91 9d bc 5d d8 e4 bc 3b 26 a6 bc ea 5c 38 bc
       -0.019234316 -0.027935201 -0.020281902 -0.011252621

wte.weight f4 [21, 2]
000000 58 e2 02 3d 8f f2 9b bb 6b 7a 9a bc fc a4 33 bd
       0.03195414 -0.00475914 -0.018857202 -0.043858513
000010 78 2c fb 3c 45 5e 2a bc 20 63 48 bd 9d 03 08 bc
       0.030660853 -0.010398452 -0.048922658 -0.008301643
000020 3d 72 0e bd 72 5c 1f 3d 62 d1 36 bb 60 ff 6f 3c
       -0.034776915 0.038906522 -0.0027895798 0.0146482885
000030 6b 46 8c bc 49 56 02 3d 7d d1 14 3d ad c8 b9 3c
       -0.017123422 0.03182057 0.036332596 0.022678697
000040 01 5e 2c bd 66 07 0b 3d 24 7d 43 bd 28 50 84 bc
       -0.042081837 0.033942603 -0.047726765 -0.016151503
000050 8f 07 20 bc 84 ed ba bc 59 42 2a bc ca d9 de 3b
       -0.009767427 -0.022818334 -0.010391795 0.006800865
000060 bd 06 87 3a cb 2b dc 3b 4c 67 56 bc 06 49 86 bc
       0.0010301691 0.0067190877 -0.013086151 -0.016392242
000070 1e 9a b1 bc e7 b3 02 3b a6 d4 c1 ba 00 6c d4 bb
       -0.021679934 0.0019943656 -0.0014788106 -0.006482601
000080 10 a5 05 3d a6 75 02 ba 82 64 cb bc 46 66 07 3d
       0.03262812 -0.00049766374 -0.0248282 0.03305652
000090 86 7e 4d bc c8 51 99 bc d7 f3 21 3d 7a a1 a0 3a
       -0.012542373 -0.018715754 0.039539184 0.0012255155
0000a0 4a c8 f5 3c 65 c8 59 3c
       0.030002732 0.013292407
