tests/resources/models/tiny_gpt2/model.safetensors (safetensors, 9880 bytes, 16 tensors)

h.0.attn.c_attn.bias f4 [6]
00000000: 0000 0000 0000 0000 0000 0000 0000 0000
00000010: 0000 0000 0000 0000
0.0 0.0 0.0 0.0 0.0 0.0

h.0.attn.c_attn.weight f4 [2, 6]
00000000: a851 efbb dc42 9bbc 6f91 05bc 8ec4 14bd
00000010: 92a6 fdbc 849b 31bc 2fd5 ac39 72c1 02bd
00000020: 6782 6abc d50e e0bc e4d4 2cbd eed3 903b
-0.0073034354 -0.01895278 -0.00815235 -0.03632026 -0.030963216 -0.0108403005 0.0003296523 -0.031922765
-0.014313317 -0.027350822 -0.042195216 0.0044197952

h.0.attn.c_proj.bias f4 [2]
00000000: 0000 0000 0000 0000
0.0 0.0

h.0.attn.c_proj.weight f4 [2, 2]
00000000: 1e60 6fbb 7d76 7dbc 3a27 ef3b d596 03bb
-0.0036525796 -0.015470144 0.0072983773 -0.0020078917

h.0.ln_1.bias f4 [2]
00000000: 0000 0000 0000 0000
0.0 0.0

h.0.ln_1.weight f4 [2]
00000000: 0000 803f 0000 803f
1.0 1.0

h.0.ln_2.bias f4 [2]
00000000: 0000 0000 0000 0000
0.0 0.0

h.0.ln_2.weight f4 [2]
00000000: 0000 803f 0000 803f
1.0 1.0

h.0.mlp.c_fc.bias f4 [8]
00000000: 0000 0000 0000 0000 0000 0000 0000 0000
00000010: 0000 0000 0000 0000 0000 0000 0000 0000
0.0 0.0 0.0 0.0 0.0 0.0 0.0 0.0

h.0.mlp.c_fc.weight f4 [2, 8]
00000000: fbce 133d 3bd7 2b3c cf51 283d a61e 453c
00000010: 3320 503c 86ce 2bbc a7f5 8e3c 47f6 9b3a
00000020: 0d66 8abc 26aa 9c3c fcf7 983b fd9a 663c
00000030: 86c0 e13b 4f62 9cbc f3e0 f93c c473 97bc
0.036086064 0.010488327 0.041093644 0.012031233 0.012702989 -0.010486251 0.01745112 0.0011898958
-0.016894365 0.019124102 0.004668234 0.014075038 0.0068894057 -0.019089846 0.030502772 -0.018487819

h.0.mlp.c_proj.bias f4 [2]
00000000: 0000 0000 0000 0000
0.0 0.0

h.0.mlp.c_proj.weight f4 [8, 2]
00000000: 65cc 0a3c 153c d6bb f9e9 1c3c 46c0 5c3c
00000010: bba9 403c e560 31bc 625f 2fbc e647 6a3a
00000020: 111b 9ebb 69fd bdbb 1e41 0c3d 5b51 5e3c
00000030: bffd c63b 2e96 ac3c 8f2d 33b9 1903 2ebb
0.008471583 -0.006537924 0.009577268 0.013473576 0.011759217 -0.010826324 -0.010703893 0.00089371053
-0.004825004 -0.005798031 0.034241788 0.013569201 0.0060727294 0.021067705 -0.00017087742 -0.002655214

ln_f.bias f4 [2]
00000000: 0000 0000 0000 0000
0.0 0.0

ln_f.weight f4 [2]
00000000: 0000 803f 0000 803f
1.0 1.0

wpe.weight f4 [1024, 2]
00000000: 9f3c 083c d7cd 943c 53ca d73c 8740 a0bc
00000010: e98f 733c 0659 0abb d3fd 98bb fbb9 e4bc
00000020: 2a47 99ba 5b2e 9f3c e6e3 a0bc 4f30 7d3b
00000030: 6541 84bc 5967 063d f2db 723b a1c2 0c3d
00000040: c46f bebc ff0a 9c3c dee2 7cbc d4df f5bb
00000050: 49a0 123c 975f 39ba 07d5 05bd 151a 03bc
00000060: 29f0 9dbc 72c4 c63b b998 9dbb e592 b3bc
00000070: 8b03 97ba f025 ca39 0188 353c c7f1 80bb
00000080: d261 223d fc65 fe3c c6e8 19bc 331b 40bb
00000090: e20d f4bb 4dee ba3c 382b 2f3c 0c04 5f3c
000000a0: d43e 41bc 01f0 3cbb 737b a9bc c21a 88bc
000000b0: e05e a03b 1c1b 61bc 2c9b 993c d7d6 f7bc
000000c0: 1551 cebb 7908 0b3c 422f 02bd b2ef 83bc
000000d0: a0c0 cf3b 3b79 a73c d2e2 7a3c c0da 8e3c
000000e0: da88 9a3c 1391 af3b 9ce3 f43b de22 acbc
000000f0: d9e7 843b 79d6 0bbc 1d2f d53a ca6b abbc
00000100: 9440 22bc 6006 38bc e0f2 b7bb 9e8b 0d3d
00000110: ae38 d13c db6e f4bc f3e4 72bc f950 aabc
00000120: b617 133c 4ff5 313c fd3b c13c c481 0cbc
00000130: 0485 293d 172d 3bbb 53af c8bc 7c50 9e3c
00000140: 92c0 2dbc 07f0 153c 4e1e 94bb 459b e3bb
00000150: 45c8 6d3b 3688 09bb 4c73 883c dcfd 39bd
00000160: f0af c43c d20a 9dba 1eab dfbb 7e69 a7bc
00000170: 243e 95bc 3bcc c03c f8b8 743c ebac da3a
00000180: 34b9 e2bc 5545 9f3a 32e3 4b3c e5ec 3bbc
00000190: 8d60 44bb 5236 213b 9839 803b 794f 913b
000001a0: 339d 3b3c 2709 d7bc f6ed 9ebc 472e b4bb
000001b0: 38ef 64bc 29db dfbb e61f 80bc d226 b2bc
000001c0: 7e84 19bc cdb9 a13c 4190 863c 3c2c fe3c
000001d0: 12fc 99bc 7387 843c 1d6a 1e3d a274 183c
000001e0: 8cf3 93bc f41e f63c 2ad8 f7bc 50b2 d93a
000001f0: 39bc 5cbc 1045 e13b 5d90 3b3c 09e5 0abc
00000200: 36c7 91bb 23bc 0dbc 3d35 00bc a8d7 0fbb
00000210: 4246 5fbc d2fc 73bb f810 5e3c 30f8 b63c
00000220: 0ea9 133d e998 783c a66b 49bc 2269 78bc
00000230: f9dc c93b 5532 0a3d 30e6 ba3c 26f9 27bd
00000240: 9eea 30bb 7b85 b03c e0f9 3db9 cf81 dfbb
00000250: 234f f3bc 6bfc 9d3c fdd1 17bc 2a28 b4bb
00000260: e291 463c bf02 1e3c 0dff 363c 87a6 9cbc
00000270: 1017 833c 0d7a babb 1cd4 e1bb 931f e3bb
00000280: 5be0 70bc 2714 6238 54f6 a33c 27f8 a3bc
00000290: 2205 303c a36c eebc 7e8f eab8 d44d 043d
000002a0: a415 c1bb c45c 013b 0f97 173c f704 083d
000002b0: 15d5 603b 1497 13bd b331 073c bd48 803b
000002c0: f409 13bc 2668 6b3c 53f7 a5bb 359b 01bc
000002d0: 4a4f 58bc 10b5 fbba 60ba 64bc b9d9 ba3c
000002e0: f055 ad3c 2f35 0d3a 0fa9 6c3c 7326 a7bc
000002f0: 73fb 17bc ce08 f03b 0175 f83c a59f afbb
00000300: 9030 a6bb b3b9 eb3b c581 bfbb d296 053b
00000310: 5455 a23a 8007 5c3c dec3 e8bc 80f9 a9bc
00000320: 83ae 203b 3512 08bd a4bd 64bb b59d 4a3c
00000330: a1a0 50bc 4fd9 a53c 2050 2f3c 8b31 493c
00000340: 5d2d 8bbb 779d e8bc b57c 83bc 8ad3 053d
00000350: 67e7 18bd ef3d bc3a e135 a53c 4fde b3bb
00000360: a625 263c 275d c63c 5d44 c3bb 5260 243c
00000370: 15ff cd3b d935 3d3b aa29 98bc ce8d afbb
00000380: 8d0b 123c c9b9 493c 8658 663c 2bd1 9b3b
00000390: e650 83bc 57d0 d93c 6987 85bb eb9a a53c
000003a0: f7bc 01bc 2c4d 7cbc f2c8 25bd 4385 043d
000003b0: be81 d33c 6ea6 753c 4ca6 4e3b 0ca8 d7bb
000003c0: dc3b f13a d767 2f3b fcae 033c 59c2 38bd
000003d0: 448a 1b3d e9ec 2b3d 9def b23c bc74 8f3b
000003e0: e9da 853c 70de 1ebc f0bd 813c fb92 523c
000003f0: 633d 973b 96f3 9d3b c7c8 473c 7600 13bc
0.008315234 0.018164558 0.026341593 -0.019562019 0.014865854 -0.002111019 -0.00466893 -0.027920714
-0.0011694182 0.019431284 -0.01963992 0.003863353 -0.016144464 0.032813404 0.0037057367 0.0343653
-0.023246653 0.019048212 -0.015434949 -0.007503489 0.008949348 -0.0007071434 -0.03267386 -0.008001824
-0.019279556 0.0060658986 -0.0048094657 -0.02192063 -0.0011521442 0.00038556708 0.011079789 -0.003935072
0.03964407 0.03105449 -0.009393876 -0.0029313087 -0.007447944 0.022818709 0.0106914565 0.013611805
-0.011794765 -0.0028829577 -0.020688748 -0.016614322 0.0048941225 -0.013739374 0.01875075 -0.03025381
-0.006296287 0.008485907 -0.03178335 -0.016105507 0.0063401014 0.02044355 0.015312867 0.017438293
0.018864084 0.0053578704 0.007473422 -0.02101272 0.0040559587 -0.008535021 0.0016264651 -0.020925421
-0.009903092 -0.011231989 -0.0056136698 0.034556977 0.025539722 -0.029838016 -0.014825094 -0.020790564
0.008977821 0.010861709 0.023588175 -0.00857586 0.04138662 -0.0028560811 -0.024497664 0.019325487
-0.010604994 0.009151465 -0.004520214 -0.006946 0.00362827 -0.002098573 0.01665654 -0.045408115
0.024009675 -0.0011981374 -0.0068258187 -0.020436045 -0.018218108 0.023534885 0.014936678 0.0016683614
-0.027676202 0.00121514 0.012444304 -0.011470054 -0.0029964775 0.0024599028 0.0039131157 0.0044345227
0.011451053 -0.026249481 -0.019400578 -0.0054986808 -0.01397305 -0.006831546 -0.01564021 -0.021747027
-0.0093699675 0.019741917 0.016426207 0.031026952 -0.018796954 0.016177868 0.038675416 0.009305151
-0.018060468 0.030044056 -0.030254442 0.0016608927 -0.01347261 0.006874688 0.011447993 -0.008477458
-0.0044487966 -0.008650812 -0.007825193 -0.002194861 -0.013627591 -0.003722955 0.01355385 0.022335142
0.036049895 0.015173175 -0.012293732 -0.015161784 0.006160375 0.033739407 0.02281484 -0.04100909
-0.0026995311 0.021548023 -0.0001811753 -0.0068208943 -0.029700821 0.019285401 -0.009266374 -0.005497952
0.012119742 0.009644209 0.011169207 -0.019122375 0.016002208 -0.005690819 -0.0068917405 -0.006931254
-0.014701928 5.3901367e-05 0.02001492 -0.02001579 0.010743411 -0.029104536 -0.00011184717 0.032300785
-0.0058924723 0.001973913 0.009252324 0.03320786 0.0034306694 -0.03603275 0.008251595 0.003914921
-0.008974541 0.014368093 -0.0050648837 -0.007910539 -0.013202498 -0.0019203741 -0.013960451 0.022808896
0.021159142 0.0005386648 0.014444604 -0.020404076 -0.009276259 0.0073252684 0.03032923 -0.0053596073
-0.005071707 0.007193768 -0.005844327 0.0020384085 0.0012385049 0.0134295225 -0.02841371 -0.020748854
0.002451808 -0.03322049 -0.0034903074 0.012366702 -0.012733609 0.020245222 0.010700256 0.012279878
-0.004247351 -0.028395398 -0.016050676 0.032672442 -0.037330057 0.0014361719 0.020167293 -0.0054891477
0.010140812 0.02421434 -0.0059590773 0.01003273 0.0062865117 0.0028871207 -0.018574554 -0.0053574806
0.008913887 0.012312361 0.014059192 0.0047551594 -0.016029786 0.026588602 -0.00407498 0.020215472
-0.007918588 -0.015399259 -0.04047484 0.03235365 0.025818702 0.014993293 0.0031532226 -0.006581312
0.001840468 0.0026764774 0.008037325 -0.04510722 0.037973657 0.041973982 0.021842772 0.0043779295
0.016339736 -0.009696588 0.01583764 0.012852426 0.004615472 0.0048202975 0.012193865 -0.008972278

wte.weight f4 [21, 2]
00000000: bf44 073c cfed d9bc 50c4 fc3b 8b3c 88bb
00000010: 57ba 78bc 475a d1bb 3702 15bc 65c7 da3c
00000020: 0be1 9bbb 5e30 9d3c 8d1a cc3c 7768 213d
00000030: 4953 9cbc bf90 13bc 9b3c 5dbc 5e79 a63a
00000040: 307e f1bc 9bae aa3c 560d 213c d6b6 99bc
00000050: e5b6 89b9 facb 8d3b efcc 36bc 2636 8a3c
00000060: 4621 e23a 3351 d5bb cd7b 073c ab67 523c
00000070: e9a8 92bc 7ece febb e5e7 283c caf1 153c
00000080: 78ff 4d3b ea6f d3bc a4c9 adbc 2d1c 183d
00000090: 49ab 0a3d 6b8b 02bd abba f83c 1c8d 513c
000000a0: 984d f8bc f801 813c
0.008256136 -0.026602654 0.007713832 -0.004157608 -0.015181146 -0.0063889357 -0.009094766 0.026706407
-0.004757052 0.019188102 0.024915004 0.039406266 -0.019082682 -0.009006678 -0.013503219 0.0012700965
-0.029479116 0.020835212 0.00982984 -0.01876394 -0.00026266943 0.0043272944 -0.011157258 0.016871523
0.0017252348 -0.006509924 0.0082692625 0.012842099 -0.017902808 -0.0077760806 0.010309194 0.009151885
0.0031432789 -0.0258102 -0.021214314 0.037136246 0.033854757 -0.03187124 0.030362448 0.012789991
-0.030310437 0.01574801
