tests/resources/models/fake_gpt2/model.safetensors (safetensors, 411960 bytes, 16 tensors)

transformer.h.0.attn.c_attn.bias f4 [6]
000000 00 00 00 00 00 00 00 00 00 00 00 00 00 00 00 00
       0.0 0.0 0.0 0.0
000010 00 00 00 00 00 00 00 00
       0.0 0.0

transformer.h.0.attn.c_attn.weight f4 [2, 6]
000000 ae d1 64 bd 38 8d eb bb 44 70 ae 3b 7a 98 26 bc
       -0.05586403 -0.0071884654 0.0053234417 -0.010168189
000010 dc 5c e7 bb 77 a5 4b bc d8 80 3d 3d a6 d4 05 bd
       -0.0070606302 -0.012429587 0.046265453 -0.0326735
000020 2a 9f 56 bd b0 b3 ba bc 33 bc 4f bc ca 36 b2 38
       -0.052397884 -0.02279076 -0.0126791475 8.497907e-05

transformer.h.0.attn.c_proj.bias f4 [2]
000000 00 00 00 00 00 00 00 00
       0.0 0.0

transformer.h.0.attn.c_proj.weight f4 [2, 2]
000000 7c e4 b2 bc 92 85 6c 3b 49 55 f3 3c 19 0f d6 bb
       -0.021837465 0.0036090356 0.029703753 -0.0065325615

transformer.h.0.ln_1.bias f4 [2]
000000 00 00 00 00 00 00 00 00
       0.0 0.0

transformer.h.0.ln_1.weight f4 [2]
000000 00 00 80 3f 00 00 80 3f
       1.0 1.0

transformer.h.0.ln_2.bias f4 [2]
000000 00 00 00 00 00 00 00 00
       0.0 0.0

transformer.h.0.ln_2.weight f4 [2]
000000 00 00 80 3f 00 00 80 3f
       1.0 1.0

transformer.h.0.mlp.c_fc.bias f4 [8]
000000 00 00 00 00 00 00 00 00 00 00 00 00 00 00 00 00
       0.0 0.0 0.0 0.0
000010 00 00 00 00 00 00 00 00 00 00 00 00 00 00 00 00
       0.0 0.0 0.0 0.0

transformer.h.0.mlp.c_fc.weight f4 [2, 8]
000000 39 cd 0f 3c 39 c7 ea 3b fc 2b ed bc 04 cb 17 3d
       0.008776956 0.0071648625 -0.028951637 0.037058845
000010 64 48 3a 3c 12 de 5e 3c 60 73 31 3d 9e 64 a3 bc
       0.011369798 0.01360275 0.04332292 -0.019945439
000020 a6 fa d1 ba 98 95 26 3d 55 00 88 3c d4 34 23 bc
       -0.0016020134 0.040670007 0.01660172 -0.009961326
000030 3b f9 97 3c 0c 6f eb bc 9e 40 83 bb 3c ad b7 bc
       0.01855146 -0.028739475 -0.0040055057 -0.022421472

transformer.h.0.mlp.c_proj.bias f4 [2]
000000 00 00 00 00 00 00 00 00
       0.0 0.0

transformer.h.0.mlp.c_proj.weight f4 [8, 2]
000000 52 41 0c 3c 75 dc 46 3b a9 10 52 bc 86 57 49 3b
       0.008560495 0.0030343805 -0.012821355 0.0030722334
000010 22 4a 8e 3c 3a ab 6b bc 63 ca 93 bc dd 03 56 bc
       0.017369334 -0.014384085 -0.018040841 -0.0130624445
000020 99 5b 9d 3c c7 3e 34 3c 79 0e f7 bb 71 d6 81 3c
       0.019208716 0.011001295 -0.007539567 0.015849324
000030 38 73 8a bc d7 50 26 bc 71 60 32 3c 6c b2 8c 3b
       -0.016900644 -0.01015111 0.010887251 0.0042937305

transformer.ln_f.bias f4 [2]
000000 00 00 00 00 00 00 00 00
       0.0 0.0

transformer.ln_f.weight f4 [2]
000000 00 00 80 3f 00 00 80 3f
       1.0 1.0

transformer.wpe.weight f4 [1024, 2]
000000 36 f0 a6 bc 1d 44 ca bc b7 64 9f bb 60 e2 c6 bc
       -0.020378213 -0.024690682 -0.004864301 -0.024277866
000010 56 ad 93 3b 0b b2 fb bc 9d da 4b bc 4f 41 48 bd
       0.0045067472 -0.030724546 -0.012442258 -0.048890408
000020 85 5e 13 3c de 61 16 3c 2d 17 25 bc e4 93 8e 3c
       0.008994703 0.009178607 -0.010076326 0.017404504
000030 02 46 d4 3c b8 aa 6d 3c 85 38 34 3b a4 9c 80 3c
       0.025912289 0.014506035 0.0027499509 0.015699692
000040 3d 48 1e 3a f9 a4 83 3c cb 1f 60 3c e4 44 55 bc
       0.0006037986 0.016069876 0.013679455 -0.013016913
000050 f3 68 8c bc 3b 28 29 3d 30 69 09 3d 64 2e 21 bc
       -0.017139887 0.041298132 0.03354758 -0.009837721
000060 04 a9 81 bc 6b 33 32 3c 7e 57 cb 3a ef 9f 61 bc
       -0.015827663 0.010876517 0.0015513746 -0.013771041
000070 c1 37 78 3c 39 ed 94 bb 2d b0 2f 3c 6b cd cb 3b
       0.0151500115 -0.0045448807 0.010723156 0.006219556
000080 f4 d9 73 bc fc 41 cb bb cb 3d 53 3c 46 23 e2 3a
       -0.014883507 -0.0062029343 0.012893151 0.0017252944
000090 5c 10 e4 bc d8 2f e4 bb 42 8a 81 bc 09 34 26 bb
       -0.027839832 -0.006963711 -0.015812997 -0.0025360605
0000a0 db 75 fb bc 30 b7 ae bb 00 00 73 3c af fd 8e bc
       -0.030695846 -0.0053318962 0.014831543 -0.01745495
0000b0 4f fe e5 3c 94 95 ac bc f9 39 20 bd c4 30 2e bd
       0.028075365 -0.021067418 -0.039117787 -0.042526975
0000c0 f0 5f a6 bc a6 58 a9 3b 2f 65 79 3c 41 83 6e 3c
       -0.020309418 0.0051680384 0.015221878 0.014557661
0000d0 6e f7 da 39 6b 16 e4 3c 2c 81 5e bc 5e 59 34 3c
       0.0004176455 0.027842721 -0.013580602 0.011007635
0000e0 95 e2 eb bc cc 64 f6 3c af 2e 85 bc 2f 01 08 3d
       -0.028794566 0.03007736 -0.016257612 0.033204254
0000f0 78 ea 6c 3b 08 8a 98 ba 3c 8e 0e bc 25 5f 43 bb
       0.0036150496 -0.0011637816 -0.0087009035 -0.002981135
000100 ce 1f c7 3c 99 dd 61 3c 69 b6 0d 3b 70 5a bc ba
       0.024307158 0.013785743 0.0021623618 -0.0014370214
000110 44 da 2c 3c 06 b0 e2 bc bc b9 fe 3c 46 00 f7 3b
       0.010550085 -0.027671825 0.031094424 0.0075378744
000120 bb 5c f4 bc cb 31 88 3c 9e 42 04 bd 9c 3f 84 bc
       -0.029829374 0.016625306 -0.032290094 -0.016143613
000130 4f c0 b4 3c ad e0 9d 3c 06 9c 55 bb 87 21 be bc
       0.022064356 0.019272173 -0.0032594218 -0.023209346
000140 42 24 97 bc ff 77 82 bc 1c d8 31 3c e0 82 45 3c
       -0.018449906 -0.01592636 0.010854747 0.012055129
000150 aa 2f ec bb 56 5a 10 bb bb 03 67 bc 56 25 28 bb
       -0.0072078304 -0.00220265 -0.0141000105 -0.002565702
000160 8d 01 31 bc cb de 01 3b d8 19 c4 bc 16 fd 82 bb
       -0.010803592 0.0019816633 -0.023938105 -0.0039974554
000170 04 93 66 bb bc 19 3c 3b fd 8b 10 bc e7 15 3e 3c
       -0.0035182843 0.0028701862 -0.008822438 0.011601902
000180 a5 1e 70 bb 5b 87 e6 3b ab 84 80 bc f2 ab 28 3a
       -0.003663936 0.0070351786 -0.015688261 0.0006434313
000190 ac 5a 87 3b 2a 8b bb 38 19 c0 a0 b7 2c 16 61 3c
       0.004130682 8.942776e-05 -1.9162939e-05 0.013738196
0001a0 c0 8d 07 3c e4 0d 9d 3b 33 d5 cd bb 8f 87 e1 3c
       0.008273542 0.0047929157 -0.006281519 0.02753046
0001b0 f3 73 b3 3b 4e 97 57 bb 66 9b da bc ed 46 95 3c
       0.0054764687 -0.003289658 -0.026685428 0.018222297
0001c0 80 01 ab bb d9 2b b3 bc 97 7b c5 3b 70 f8 63 3b
       -0.0052186847 -0.021871494 0.006026696 0.0034785531
0001d0 39 e8 fc 3b 13 35 99 bc 97 5b 94 3c 61 bb 82 bc
       0.007718113 -0.018702066 0.01811008 -0.01595849
0001e0 c8 59 9e bc 7e 5d 23 3d 6f da 89 3c 76 41 8d bd
       -0.01932992 0.039884083 0.01682779 -0.06897251
0001f0 42 51 60 bd 78 df bc 3b 62 04 b7 3b e8 0e 01 3c
       -0.054764993 0.0057639442 0.0055852393 0.007877089
000200 15 1d 03 3a a4 a9 de 3c 37 0c 8d 3c f0 c6 89 bc
       0.0005001587 0.0271805 0.017217739 -0.016818494
000210 bb cc 82 3b 09 37 75 bc 5c 87 cc bb af f8 9d bb
       0.003991691 -0.014966735 -0.006241722 -0.004820905
000220 1b 39 7d 3c 5b 74 ca 3a bb b8 b7 bb 09 84 9b ba
       0.01545551 0.0015446054 -0.0056067384 -0.0011864911
000230 ea c7 d5 ba a0 88 21 3c 63 64 f8 bc 4d 1e 1d bb
       -0.0016310189 0.009859234 -0.030321306 -0.002397436
000240 5e 3c 02 3c 8b 09 89 3c 41 96 48 3c 77 c1 a0 3c
       0.007948963 0.016728183 0.012242855 0.019623501
000250 10 66 9e ba 50 16 b8 bc 81 5e 0a bc e8 fd 94 bc
       -0.001208486 -0.022471577 -0.008445383 -0.018187478
000260 ab 60 ff bb 05 3f 3c ba c2 58 86 3c ee 97 bc bc
       -0.007793506 -0.00071810215 0.016399745 -0.023021664
000270 7e b0 ea 3a 18 3b 26 3d ca f5 c5 3c 1a 2b 21 bd
       0.0017905382 0.0405837 0.024165053 -0.039347745
000280 f0 f7 7e ba 3e 72 a8 3c 64 2e 25 3c d7 02 72 3c
       -0.00097262766 0.020562287 0.010081861 0.014771185
000290 09 93 e2 bb 17 07 c4 3c bc 4d 73 bb ae d5 4d 3b
       -0.0069145006 0.023929162 -0.003712519 0.003140788
0002a0 c4 c8 be bc b4 e8 63 3c 94 22 3f bd d7 a4 30 3c
       -0.023289092 0.013910461 -0.046663836 0.010781488
0002b0 3e 38 5f 3c 74 3d fc 3c 17 b4 80 3b a9 1c b0 3c
       0.013624249 0.030791022 0.0039277184 0.021498041
0002c0 f0 82 7a 3d c1 40 78 3c bb 60 05 3b 3c 86 4f bc
       0.061160028 0.015152157 0.0020351845 -0.012666281
0002d0 fc a0 8b bc 18 48 81 3c 00 26 04 bb 9c ed 6e 3c
       -0.017044537 0.015781447 -0.0020164251 0.014583018
0002e0 b4 2a c5 3b 97 dc cb 3c 77 31 0a 3d a6 54 1b 3b
       0.0060170535 0.024885459 0.03373858 0.0023701577
0002f0 88 38 1a 3c 5d 26 fe 3c 9d 03 dd 3b d7 56 85 3c
       0.009412892 0.031024152 0.0067448155 0.01627676
000300 58 50 ad 3c c1 d2 4e bc bd 2a 82 bb a6 66 9f bc
       0.021156475 -0.01262349 -0.00397238 -0.019458126
000310 02 a2 02 3c 35 e1 f7 bc a5 60 7a 3c 89 dc b6 3a
       0.007973196 -0.030258754 0.015281831 0.0013951223
000320 7e 12 9a bb 53 d6 67 3c 60 b2 6e 3b 54 8f 2f 3d
       -0.0047019115 0.01415022 0.0036422238 0.042861298
000330 f9 b7 34 bc 60 bc 55 bc de 30 2c bc 72 e1 fb bc
       -0.011030191 -0.0130454 -0.010509698 -0.03074715
000340 97 2a ad b9 b9 4a 21 bd 60 60 5b 3b 8b 4c 28 3d
       -0.00033028863 -0.0393779 0.0033474192 0.041088622
000350 0b b3 40 bc 7d 8c fa 3b cd e6 9c bc 1e cc bb bc
       -0.011761437 0.007646142 -0.019153023 -0.02292448
000360 c1 34 c0 3c 1d 5f b4 3c 62 f8 fa 3c 20 e7 9f 3c
       0.023462655 0.02201801 0.030636016 0.019519389
000370 ab 1f f2 bb 41 22 a9 3c e5 0b 2f 3a a3 16 6a bc
       -0.007389029 0.020646216 0.00066774926 -0.014287624
000380 b3 e8 e0 3c 12 64 a2 39 07 ce d8 bb 2b 4d 88 3c
       0.02745471 0.00030973606 -0.0066163572 0.016638359
000390 82 e4 ad 3c fc 83 87 3c c9 cd f8 3b 19 9e 64 3b
       0.021227125 0.016542427 0.007592891 0.0034884273
0003a0 2a da f8 3b 70 6d 9a 3c 3c 87 a0 bc 0b 8a 2e 3c
       0.0075943666 0.018851012 -0.019595735 0.010653029
0003b0 40 af f8 3b c4 62 27 3b 6d 1b 01 bd 30 d8 e7 bc
       0.007589251 0.0025541047 -0.031520296 -0.028301328
0003c0 56 2b 27 bd 92 84 cd 3c 0e 93 66 3b 84 90 96 bc
       -0.040812813 0.025087629 0.0035182866 -0.018379457
0003d0 a6 de bb bb ae 1a e6 bc c5 5d 63 3d 5d 9d 02 3d
       -0.005733329 -0.028088894 0.055509347 0.031888355
0003e0 04 d8 3a 3a 72 4a cc 3c 65 a2 74 bc f3 e4 a3 3c
       0.0007127526 0.024937842 -0.014931296 0.020006632
0003f0 73 38 56 ba d3 f2 8c bc 12 cb c1 3c cf 8c 04 bc
       -0.0008171864 -0.017205631 0.023656402 -0.008090212

transformer.wte.weight f4 [50257, 2]
000000 a4 bb e0 3c 39 a7 3f 3c 6a 27 42 bc 07 dc 9f bc
       0.027433224 0.011697584 -0.011850217 -0.019514097
000010 7e a5 d8 3c 1d b3 b4 3b 07 97 a8 bc 80 19 21 bc
       0.0264461 0.005514516 -0.020579828 -0.00983274
000020 ca b4 5a 3b e4 f4 16 bc 97 35 ce 3c 69 01 84 3b
       0.0033371919 -0.00921366 0.025172038 0.0040284884
000030 dd 91 06 3d 95 5c 9c 3b 9c 4d ed bb 27 c9 54 bb
       0.03285395 0.004771779 -0.007241918 -0.003246853
000040 38 33 eb 3c bb 06 fa 3c c5 8c c4 39 c4 4f b7 3c
       0.028710946 0.030520787 0.00037488915 0.022376902
000050 33 68 c1 3c 97 3b 94 bb 8a e0 45 bd 2d 00 b5 bc
       0.023609256 -0.004523705 -0.04830984 -0.02209481
000060 90 3e af bb 4c 13 09 3c f0 4f 01 3d ef ca 85 3c
       -0.005348034 0.008366417 0.031570375 0.016332118
000070 77 f2 d6 bb 33 41 bd 3c 40 49 76 3c 4f d6 14 3c
       -0.006559666 0.023102378 0.015032113 0.009084298
000080 d4 5f 7a bc 62 5f a1 3c 20 fb 09 3d fc bc d7 bc
       -0.015281636 0.019698802 0.033686757 -0.026335232
000090 3c d4 ea 3c 8c 5d 69 3a b0 6a b1 bc 18 25 7c bc
       0.028665654 0.0008902184 -0.021657318 -0.015389703
0000a0 53 74 9a bc 25 6e 3e bc 9d 35 50 bc e9 b3 a9 bc
       -0.018854296 -0.01162294 -0.012708095 -0.02071567
0000b0 ee 1e e6 3c c1 50 c3 3b 3d 20 70 3a 1f 08 16 3b
       0.02809092 0.0059605544 0.00091600773 0.0022893024
0000c0 90 6c 14 bd 15 c9 c1 3b fd 45 3b bb 76 ba 0f 3b
       -0.036236346 0.0059138634 -0.0028575652 0.0021931208
0000d0 e9 d7 4a bb a5 c0 3a 3c 7b 3c b3 3c 53 f1 fa bc
       -0.0030951446 0.011398469 0.021879425 -0.03063265
0000e0 ca f1 fd 3b 3f 73 99 bb ef ab c3 bc ea 28 9f bb
       0.007749771 -0.004682928 -0.023885695 -0.0048571723
0000f0 c5 f8 61 3b 3e 17 b9 3c 9d 22 21 bc 90 2b 04 39
       0.0034480554 0.02259409 -0.009834913 0.0001260473
000100 bf 8b 07 bd 70 ec 6a bb 61 67 6d 3c c9 2c 04 3d
       -0.033092257 -0.0035846494 0.0144899795 0.032269273
000110 bc 15 27 3d 86 ba 65 3c 7f 88 21 3c 5e 61 b2 3b
       0.040792212 0.014021521 0.009859203 0.005443736
000120 a9 65 8b bc 21 d8 ef 3b b6 4d 8c 3b 5d ba 0f 39
       -0.017016249 0.0073194657 0.004281725 0.00013706968
000130 84 75 1e bc 9b b4 3d bc 1c 33 7a bc 6a 03 30 bc
       -0.009671573 -0.011578704 -0.0152709745 -0.0107430015
000140 82 00 f6 ba bb 9b cd 3c cf 50 a6 bc 53 56 f4 3b
       -0.0018768462 0.025098672 -0.020302204 0.0074565797
000150 b9 54 46 3b ef 02 4f bc 52 ce ed 3b 7d 7c ea bc
       0.00302629 -0.012634977 0.0072572613 -0.028623814
000160 23 ea eb bb cb 38 2e bc a7 4c a0 3c 73 8d 78 3a
       -0.007199542 -0.010633658 0.0195678 0.0009481527
000170 0a b0 d7 3b d8 1d 9a 3c 4c 28 ee 3c f0 25 45 bd
       0.006582265 0.018813059 0.02907195 -0.048131883
000180 26 f6 e1 3c 04 2a 91 3c 29 36 6c 3c d6 85 10 3c
       0.027583193 0.01772023 0.01441721 0.0088209715
000190 5e a4 c6 bc 1b df c0 3b af 77 b9 bc f5 e3 14 3c
       -0.024248298 0.0058859712 -0.022640077 0.009087552
0001a0 90 c0 fa 3c 9b d8 05 3b 3e 0c 81 bb b2 bf ad bc
       0.0306094 0.0020423296 -0.003938227 -0.021209572
0001b0 64 87 2e bd c0 38 79 3c db 3d ce bc 12 89 a6 bb
       -0.042609587 0.015211284 -0.02517598 -0.005082258
0001c0 1f ff 01 3d d7 55 69 3c 77 29 5f bc 58 f0 7d ba
       0.031737443 0.014241657 -0.013620726 -0.0009686998
0001d0 6f b1 55 3c 74 17 47 bc 5c 71 bb 3c 9d 05 31 bc
       0.013042792 -0.012151588 0.022881202 -0.010804561
0001e0 94 59 90 3b d2 cf 10 3c 1d 50 40 bb ea 57 cc 3c
       0.00440521 0.008838611 -0.0029344626 0.024944264
0001f0 f5 32 96 3c 4b 34 50 3d b2 5e 5a bd c1 a9 89 3b
       0.018334845 0.05083112 -0.053312965 0.0042011444
000200 d0 b2 4c bc 62 49 02 3c 45 68 23 bc bd 34 3c bd
       -0.012493804 0.007952066 -0.00997359 -0.045948733
000210 44 23 02 3c 1c d2 3b bc b1 f3 10 3c 00 e8 f4 3c
       0.007942978 -0.011463668 0.008847163 0.029895782
000220 79 f5 f6 bb 6b 1f d0 3c 9b cc de 3b 46 38 94 bc
       -0.007536587 0.025405606 0.006799293 -0.01809324
000230 0b c1 70 bc 35 2a b7 bc 2b 18 98 bb 44 e5 93 bc
       -0.0146944625 -0.022358993 -0.004641553 -0.018053658
000240 79 29 7f 3c 83 2e 9e 3c a9 cd 43 3c c6 61 2c 3d
       0.015573853 0.019309288 0.011950889 0.04208543
000250 94 2f 3d 3c 2e 03 b8 bc 70 7f ee bb d4 9b 8f ba
       0.011546988 -0.022462454 -0.0072783753 -0.0010956475
000260 0b 63 2e bc 97 6d 27 3d 2b 6a b6 38 21 80 86 bc
       -0.010643731 0.040875997 8.6982116e-05 -0.016418518
000270 aa fe 54 3c a6 c2 16 3d 0f 9f db 3c 9d b7 03 bd
       0.01300017 0.036806725 0.026809243 -0.03215753
000280 aa a8 00 3c 82 4d c7 bc c2 98 83 3a 4e b6 c8 3c
       0.007852713 -0.02432895 0.0010040032 0.024500992
000290 57 50 79 bc a1 d6 ae 3b 6d 55 2f 3c 37 7b 5b bc
       -0.015216908 0.0053356444 0.010701519 -0.013396076
0002a0 65 1e 45 bc b1 c4 0c 3d 0e 08 44 bc d7 18 7b bc
       -0.012031172 0.034367267 -0.011964811 -0.0153257465
0002b0 02 8a 50 3b 49 59 05 3c d8 d6 c3 bb 64 71 e7 3c
       0.003182054 0.008138963 -0.005976539 0.028252311
0002c0 0b e8 98 3c ce 38 86 3c 32 4b 57 3c 4b 86 97 3c
       0.018665334 0.016384508 0.013140487 0.018496653
0002d0 ac ee 5e bc 51 86 1c bb 0d 30 44 bd 2a 83 59 bc
       -0.0136067085 -0.002388377 -0.047897387 -0.013275901
0002e0 14 1b 16 bc 54 e1 e4 bc 04 40 b9 bc 1c 51 03 3d
       -0.009161729 -0.027939476 -0.022613533 0.032059774
0002f0 88 fc 80 bc 33 8f c9 bc 7c 65 b5 bc 4f 8c 1a 3d
       -0.015745416 -0.024604416 -0.022143118 0.037731465
000300 5a d5 20 3c fe 49 47 bc 06 e0 b1 bc 4b ef ec bc
       0.009816492 -0.012163637 -0.021713268 -0.028922698
000310 44 9d 35 3d 54 1a 97 3c c1 d0 3b bc 6d 80 b9 bc
       0.044339433 0.018445171 -0.011463345 -0.022644246
000320 c5 ab 0a bc 4b 85 f2 bc d9 35 75 3c 30 03 09 3c
       -0.008463805 -0.029604575 0.014966452 0.008362576
000330 89 9d 76 3b f6 00 97 bc 55 dc fd bc 8d 02 a3 3b
       0.003763052 -0.018433075 -0.030988852 0.0049746693
000340 4b f5 26 bb 59 51 4f 3a 26 b9 84 bc f2 60 a0 bc
       -0.0025475796 0.0007908545 -0.016201567 -0.019577477
000350 a0 a9 a0 bc f2 05 9e bc ef be 23 bd b4 a3 6f 3c
       -0.019612134 -0.019289944 -0.03997701 0.014626432
000360 bc b6 13 bc 67 9e 67 bc 4d 4e 92 bb 92 e2 2f bc
       -0.009015735 -0.014136887 -0.0044649006 -0.010735171
000370 e5 6f 51 3b 46 98 86 bc 58 ab f6 3b 61 04 97 3c
       0.0031957563 -0.016430032 0.00752775 0.018434705
000380 db 06 22 3b 38 ee 58 bd 1d 49 ae bc aa 52 d9 bc
       0.0024723324 -0.052961558 -0.021275098 -0.026528675
000390 eb 57 5a 3b ce be d1 bc a9 f4 20 bd 18 0c 7a 3c
       0.0033316563 -0.025603678 -0.039295826 0.015261672
0003a0 0b d9 80 3b d8 31 36 bc 4d 53 82 3b d2 ed 0f bb
       0.0039321235 -0.011120282 0.0039772154 -0.002196182
0003b0 74 fe 39 bc 69 63 bc 3c 05 e4 b6 39 d4 e7 68 3c
       -0.01135217 0.022996621 0.00034883633 0.014215428
0003c0 30 30 a5 3c b6 8b 21 3a c9 1d fe bb 4b a1 ae bc
       0.02016458 0.0006162481 -0.0077550155 -0.021317145
0003d0 1d ca f0 bc 32 9f 92 bc b2 75 8d 3c 0a 78 d7 3c
       -0.02939325 -0.017898176 0.017268036 0.026302356
0003e0 9f a3 02 bc 8f 94 e5 3b 4b 05 05 3d f7 56 00 bd
       -0.007973581 0.007006235 0.03247575 -0.031332936
0003f0 bd 2f 1b 3c 21 a8 b5 bb 41 9d f0 3b 1e ef e1 3c
       0.009471831 -0.005543724 0.007342965 0.02757984
